2023-12-06 06:13:55 - Namespace(batchSize=64, beta1=0.5, classes='bedroom', cuda=True, dataroot='../data/mnist', dataset='mnist', dry_run=False, imageSize=64, lr=0.0002, manualSeed=None, mps=False, ndf=64, netD='', netG='', ngf=64, ngpu=1, niter=25, nz=100, outf='.', workers=2)
2023-12-06 06:13:55 - Random Seed: 6650
2023-12-06 06:13:56 - Generator(
  (main): Sequential(
    (0): ConvTranspose2d(100, 512, kernel_size=(4, 4), stride=(1, 1), bias=False)
    (1): BatchNorm2d(512, eps=1e-05, momentum=0.1, affine=True, track_running_stats=True)
    (2): ReLU(inplace=True)
    (3): ConvTranspose2d(512, 256, kernel_size=(4, 4), stride=(2, 2), padding=(1, 1), bias=False)
    (4): BatchNorm2d(256, eps=1e-05, momentum=0.1, affine=True, track_running_stats=True)
    (5): ReLU(inplace=True)
    (6): ConvTranspose2d(256, 128, kernel_size=(4, 4), stride=(2, 2), padding=(1, 1), bias=False)
    (7): BatchNorm2d(128, eps=1e-05, momentum=0.1, affine=True, track_running_stats=True)
    (8): ReLU(inplace=True)
    (9): ConvTranspose2d(128, 64, kernel_size=(4, 4), stride=(2, 2), padding=(1, 1), bias=False)
    (10): BatchNorm2d(64, eps=1e-05, momentum=0.1, affine=True, track_running_stats=True)
    (11): ReLU(inplace=True)
    (12): ConvTranspose2d(64, 1, kernel_size=(4, 4), stride=(2, 2), padding=(1, 1), bias=False)
    (13): Tanh()
  )
)
2023-12-06 06:13:56 - Discriminator(
  (main): Sequential(
    (0): Conv2d(1, 64, kernel_size=(4, 4), stride=(2, 2), padding=(1, 1), bias=False)
    (1): LeakyReLU(negative_slope=0.2, inplace=True)
    (2): Conv2d(64, 128, kernel_size=(4, 4), stride=(2, 2), padding=(1, 1), bias=False)
    (3): BatchNorm2d(128, eps=1e-05, momentum=0.1, affine=True, track_running_stats=True)
    (4): LeakyReLU(negative_slope=0.2, inplace=True)
    (5): Conv2d(128, 256, kernel_size=(4, 4), stride=(2, 2), padding=(1, 1), bias=False)
    (6): BatchNorm2d(256, eps=1e-05, momentum=0.1, affine=True, track_running_stats=True)
    (7): LeakyReLU(negative_slope=0.2, inplace=True)
    (8): Conv2d(256, 512, kernel_size=(4, 4), stride=(2, 2), padding=(1, 1), bias=False)
    (9): BatchNorm2d(512, eps=1e-05, momentum=0.1, affine=True, track_running_stats=True)
    (10): LeakyReLU(negative_slope=0.2, inplace=True)
    (11): Conv2d(512, 1, kernel_size=(4, 4), stride=(1, 1), bias=False)
    (12): Sigmoid()
  )
)
2023-12-06 06:14:55 - [0/25][0/938] Loss_D: 1.5711 Loss_G: 3.7681 D(x): 0.4784 D(G(z)): 0.4491 / 0.0309
2023-12-06 06:14:55 - [0/25][1/938] Loss_D: 1.9770 Loss_G: 4.9539 D(x): 0.9982 D(G(z)): 0.8182 / 0.0101
2023-12-06 06:14:55 - [0/25][2/938] Loss_D: 0.8568 Loss_G: 6.7411 D(x): 0.9985 D(G(z)): 0.5161 / 0.0016
2023-12-06 06:14:56 - [0/25][3/938] Loss_D: 0.2406 Loss_G: 6.9954 D(x): 0.9916 D(G(z)): 0.1863 / 0.0015
…
